…
2026-03-06 15:32:16.957291: I tensorflow/tsl/cuda/cudart_stub.cc:28] Could not find cuda drivers on your machine, GPU will not be used.
2026-03-06 15:32:16.992400: I tensorflow/core/platform/cpu_feature_guard.cc:182] This TensorFlow binary is optimized to use available CPU instructions in performance-critical operations.
To enable the following instructions: AVX2 AVX512F AVX512_VNNI FMA, in other operations, rebuild TensorFlow with the appropriate compiler flags.
2026-03-06 15:32:17.496634: W tensorflow/compiler/tf2tensorrt/utils/py_utils.cc:38] TF-TRT Warning: Could not find TensorRT
Using torch.scatter_reduce for 3D to 2D projection.
Model:
DataParallel(
  (module): Segmenter(
    (embed): Embedding(
      (norm): BatchNorm1d(5, eps=1e-05, momentum=0.1, affine=True, track_running_stats=True)
      (conv1): Conv1d(5, 256, kernel_size=(1,), stride=(1,))
      (conv2): Sequential(
        (0): BatchNorm2d(5, eps=1e-05, momentum=0.1, affine=True, track_running_stats=True)
        (1): Conv2d(5, 256, kernel_size=(1, 1), stride=(1, 1), bias=False)
        (2): BatchNorm2d(256, eps=1e-05, momentum=0.1, affine=True, track_running_stats=True)
        (3): ReLU(inplace=True)
        (4): Conv2d(256, 256, kernel_size=(1, 1), stride=(1, 1), bias=False)
      )
      (final): Conv1d(512, 256, kernel_size=(1,), stride=(1,))
    )
    (waffleiron): WaffleIron(
      (channel_mix): ModuleList(
        (0-47): 48 x ChannelMix(
          (norm): BatchNorm1d(256, eps=1e-05, momentum=0.1, affine=True, track_running_stats=True)
          (mlp): Sequential(
            (0): Conv1d(256, 256, kernel_size=(1,), stride=(1,))
            (1): ReLU(inplace=True)
            (2): Conv1d(256, 256, kernel_size=(1,), stride=(1,))
          )
          (scale): Conv1d(256, 256, kernel_size=(1,), stride=(1,), groups=256, bias=False)
          (drop_path): DropPath(prob=0.0)
        )
      )
      (spatial_mix): ModuleList(
        (0): SpatialMix(
          (grid): [250, 250]
          (norm): BatchNorm1d(256, eps=1e-05, momentum=0.1, affine=True, track_running_stats=True)
          (ffn): Sequential(
            (0): Conv2d(256, 256, kernel_size=(3, 3), stride=(1, 1), padding=(1, 1), groups=256)
            (1): ReLU(inplace=True)
            (2): Conv2d(256, 256, kernel_size=(3, 3), stride=(1, 1), padding=(1, 1), groups=256)
          )
          (scale): Conv1d(256, 256, kernel_size=(1,), stride=(1,), groups=256, bias=False)
          (drop_path): DropPath(prob=0.0)
        )
        (1-2): 2 x SpatialMix(
          (grid): [250, 12]
          (norm): BatchNorm1d(256, eps=1e-05, momentum=0.1, affine=True, track_running_stats=True)
          (ffn): Sequential(
            (0): Conv2d(256, 256, kernel_size=(3, 3), stride=(1, 1), padding=(1, 1), groups=256)
            (1): ReLU(inplace=True)
            (2): Conv2d(256, 256, kernel_size=(3, 3), stride=(1, 1), padding=(1, 1), groups=256)
          )
          (scale): Conv1d(256, 256, kernel_size=(1,), stride=(1,), groups=256, bias=False)
          (drop_path): DropPath(prob=0.0)
        )
        (3): SpatialMix(
          (grid): [250, 250]
          (norm): BatchNorm1d(256, eps=1e-05, momentum=0.1, affine=True, track_running_stats=True)
          (ffn): Sequential(
            (0): Conv2d(256, 256, kernel_size=(3, 3), stride=(1, 1), padding=(1, 1), groups=256)
            (1): ReLU(inplace=True)
            (2): Conv2d(256, 256, kernel_size=(3, 3), stride=(1, 1), padding=(1, 1), groups=256)
          )
          (scale): Conv1d(256, 256, kernel_size=(1,), stride=(1,), groups=256, bias=False)
          (drop_path): DropPath(prob=0.0)
        )
        (4-5): 2 x SpatialMix(
          (grid): [250, 12]
          (norm): BatchNorm1d(256, eps=1e-05, momentum=0.1, affine=True, track_running_stats=True)
          (ffn): Sequential(
            (0): Conv2d(256, 256, kernel_size=(3, 3), stride=(1, 1), padding=(1, 1), groups=256)
            (1): ReLU(inplace=True)
            (2): Conv2d(256, 256, kernel_size=(3, 3), stride=(1, 1), padding=(1, 1), groups=256)
          )
          (scale): Conv1d(256, 256, kernel_size=(1,), stride=(1,), groups=256, bias=False)
          (drop_path): DropPath(prob=0.0)
        )
        (6): SpatialMix(
          (grid): [250, 250]
          (norm): BatchNorm1d(256, eps=1e-05, momentum=0.1, affine=True, track_running_stats=True)
          (ffn): Sequential(
            (0): Conv2d(256, 256, kernel_size=(3, 3), stride=(1, 1), padding=(1, 1), groups=256)
            (1): ReLU(inplace=True)
            (2): Conv2d(256, 256, kernel_size=(3, 3), stride=(1, 1), padding=(1, 1), groups=256)
          )
          (scale): Conv1d(256, 256, kernel_size=(1,), stride=(1,), groups=256, bias=False)
          (drop_path): DropPath(prob=0.0)
        )
        (7-8): 2 x SpatialMix(
          (grid): [250, 12]
          (norm): BatchNorm1d(256, eps=1e-05, momentum=0.1, affine=True, track_running_stats=True)
          (ffn): Sequential(
            (0): Conv2d(256, 256, kernel_size=(3, 3), stride=(1, 1), padding=(1, 1), groups=256)
            (1): ReLU(inplace=True)
            (2): Conv2d(256, 256, kernel_size=(3, 3), stride=(1, 1), padding=(1, 1), groups=256)
          )
          (scale): Conv1d(256, 256, kernel_size=(1,), stride=(1,), groups=256, bias=False)
          (drop_path): DropPath(prob=0.0)
        )
        (9): SpatialMix(
          (grid): [250, 250]
          (norm): BatchNorm1d(256, eps=1e-05, momentum=0.1, affine=True, track_running_stats=True)
          (ffn): Sequential(
            (0): Conv2d(256, 256, kernel_size=(3, 3), stride=(1, 1), padding=(1, 1), groups=256)
            (1): ReLU(inplace=True)
            (2): Conv2d(256, 256, kernel_size=(3, 3), stride=(1, 1), padding=(1, 1), groups=256)
          )
          (scale): Conv1d(256, 256, kernel_size=(1,), stride=(1,), groups=256, bias=False)
          (drop_path): DropPath(prob=0.0)
        )
        (10-11): 2 x SpatialMix(
          (grid): [250, 12]
          (norm): BatchNorm1d(256, eps=1e-05, momentum=0.1, affine=True, track_running_stats=True)
          (ffn): Sequential(
            (0): Conv2d(256, 256, kernel_size=(3, 3), stride=(1, 1), padding=(1, 1), groups=256)
            (1): ReLU(inplace=True)
            (2): Conv2d(256, 256, kernel_size=(3, 3), stride=(1, 1), padding=(1, 1), groups=256)
          )
          (scale): Conv1d(256, 256, kernel_size=(1,), stride=(1,), groups=256, bias=False)
          (drop_path): DropPath(prob=0.0)
        )
        (12): SpatialMix(
          (grid): [250, 250]
          (norm): BatchNorm1d(256, eps=1e-05, momentum=0.1, affine=True, track_running_stats=True)
          (ffn): Sequential(
            (0): Conv2d(256, 256, kernel_size=(3, 3), stride=(1, 1), padding=(1, 1), groups=256)
            (1): ReLU(inplace=True)
            (2): Conv2d(256, 256, kernel_size=(3, 3), stride=(1, 1), padding=(1, 1), groups=256)
          )
          (scale): Conv1d(256, 256, kernel_size=(1,), stride=(1,), groups=256, bias=False)
          (drop_path): DropPath(prob=0.0)
        )
        (13-14): 2 x SpatialMix(
          (grid): [250, 12]
          (norm): BatchNorm1d(256, eps=1e-05, momentum=0.1, affine=True, track_running_stats=True)
          (ffn): Sequential(
            (0): Conv2d(256, 256, kernel_size=(3, 3), stride=(1, 1), padding=(1, 1), groups=256)
            (1): ReLU(inplace=True)
            (2): Conv2d(256, 256, kernel_size=(3, 3), stride=(1, 1), padding=(1, 1), groups=256)
          )
          (scale): Conv1d(256, 256, kernel_size=(1,), stride=(1,), groups=256, bias=False)
          (drop_path): DropPath(prob=0.0)
        )
        (15): SpatialMix(
          (grid): [250, 250]
          (norm): BatchNorm1d(256, eps=1e-05, momentum=0.1, affine=True, track_running_stats=True)
          (ffn): Sequential(
            (0): Conv2d(256, 256, kernel_size=(3, 3), stride=(1, 1), padding=(1, 1), groups=256)
            (1): ReLU(inplace=True)
            (2): Conv2d(256, 256, kernel_size=(3, 3), stride=(1, 1), padding=(1, 1), groups=256)
          )
          (scale): Conv1d(256, 256, kernel_size=(1,), stride=(1,), groups=256, bias=False)
          (drop_path): DropPath(prob=0.0)
        )
        (16-17): 2 x SpatialMix(
          (grid): [250, 12]
          (norm): BatchNorm1d(256, eps=1e-05, momentum=0.1, affine=True, track_running_stats=True)
          (ffn): Sequential(
            (0): Conv2d(256, 256, kernel_size=(3, 3), stride=(1, 1), padding=(1, 1), groups=256)
            (1): ReLU(inplace=True)
            (2): Conv2d(256, 256, kernel_size=(3, 3), stride=(1, 1), padding=(1, 1), groups=256)
          )
          (scale): Conv1d(256, 256, kernel_size=(1,), stride=(1,), groups=256, bias=False)
          (drop_path): DropPath(prob=0.0)
        )
        (18): SpatialMix(
          (grid): [250, 250]
          (norm): BatchNorm1d(256, eps=1e-05, momentum=0.1, affine=True, track_running_stats=True)
          (ffn): Sequential(
            (0): Conv2d(256, 256, kernel_size=(3, 3), stride=(1, 1), padding=(1, 1), groups=256)
            (1): ReLU(inplace=True)
            (2): Conv2d(256, 256, kernel_size=(3, 3), stride=(1, 1), padding=(1, 1), groups=256)
          )
          (scale): Conv1d(256, 256, kernel_size=(1,), stride=(1,), groups=256, bias=False)
          (drop_path): DropPath(prob=0.0)
        )
        (19-20): 2 x SpatialMix(
          (grid): [250, 12]
          (norm): BatchNorm1d(256, eps=1e-05, momentum=0.1, affine=True, track_running_stats=True)
          (ffn): Sequential(
            (0): Conv2d(256, 256, kernel_size=(3, 3), stride=(1, 1), padding=(1, 1), groups=256)
            (1): ReLU(inplace=True)
            (2): Conv2d(256, 256, kernel_size=(3, 3), stride=(1, 1), padding=(1, 1), groups=256)
          )
          (scale): Conv1d(256, 256, kernel_size=(1,), stride=(1,), groups=256, bias=False)
          (drop_path): DropPath(prob=0.0)
        )
        (21): SpatialMix(
          (grid): [250, 250]
          (norm): BatchNorm1d(256, eps=1e-05, momentum=0.1, affine=True, track_running_stats=True)
          (ffn): Sequential(
            (0): Conv2d(256, 256, kernel_size=(3, 3), stride=(1, 1), padding=(1, 1), groups=256)
            (1): ReLU(inplace=True)
            (2): Conv2d(256, 256, kernel_size=(3, 3), stride=(1, 1), padding=(1, 1), groups=256)
          )
          (scale): Conv1d(256, 256, kernel_size=(1,), stride=(1,), groups=256, bias=False)
          (drop_path): DropPath(prob=0.0)
        )
        (22-23): 2 x SpatialMix(
          (grid): [250, 12]
          (norm): BatchNorm1d(256, eps=1e-05, momentum=0.1, affine=True, track_running_stats=True)
          (ffn): Sequential(
            (0): Conv2d(256, 256, kernel_size=(3, 3), stride=(1, 1), padding=(1, 1), groups=256)
            (1): ReLU(inplace=True)
            (2): Conv2d(256, 256, kernel_size=(3, 3), stride=(1, 1), padding=(1, 1), groups=256)
          )
          (scale): Conv1d(256, 256, kernel_size=(1,), stride=(1,), groups=256, bias=False)
          (drop_path): DropPath(prob=0.0)
        )
        (24): SpatialMix(
          (grid): [250, 250]
          (norm): BatchNorm1d(256, eps=1e-05, momentum=0.1, affine=True, track_running_stats=True)
          (ffn): Sequential(
            (0): Conv2d(256, 256, kernel_size=(3, 3), stride=(1, 1), padding=(1, 1), groups=256)
            (1): ReLU(inplace=True)
            (2): Conv2d(256, 256, kernel_size=(3, 3), stride=(1, 1), padding=(1, 1), groups=256)
          )
          (scale): Conv1d(256, 256, kernel_size=(1,), stride=(1,), groups=256, bias=False)
          (drop_path): DropPath(prob=0.0)
        )
        (25-26): 2 x SpatialMix(
          (grid): [250, 12]
          (norm): BatchNorm1d(256, eps=1e-05, momentum=0.1, affine=True, track_running_stats=True)
          (ffn): Sequential(
            (0): Conv2d(256, 256, kernel_size=(3, 3), stride=(1, 1), padding=(1, 1), groups=256)
            (1): ReLU(inplace=True)
            (2): Conv2d(256, 256, kernel_size=(3, 3), stride=(1, 1), padding=(1, 1), groups=256)
          )
          (scale): Conv1d(256, 256, kernel_size=(1,), stride=(1,), groups=256, bias=False)
          (drop_path): DropPath(prob=0.0)
        )
        (27): SpatialMix(
          (grid): [250, 250]
          (norm): BatchNorm1d(256, eps=1e-05, momentum=0.1, affine=True, track_running_stats=True)
          (ffn): Sequential(
            (0): Conv2d(256, 256, kernel_size=(3, 3), stride=(1, 1), padding=(1, 1), groups=256)
            (1): ReLU(inplace=True)
            (2): Conv2d(256, 256, kernel_size=(3, 3), stride=(1, 1), padding=(1, 1), groups=256)
          )
          (scale): Conv1d(256, 256, kernel_size=(1,), stride=(1,), groups=256, bias=False)
          (drop_path): DropPath(prob=0.0)
        )
        (28-29): 2 x SpatialMix(
          (grid): [250, 12]
          (norm): BatchNorm1d(256, eps=1e-05, momentum=0.1, affine=True, track_running_stats=True)
          (ffn): Sequential(
            (0): Conv2d(256, 256, kernel_size=(3, 3), stride=(1, 1), padding=(1, 1), groups=256)
            (1): ReLU(inplace=True)
            (2): Conv2d(256, 256, kernel_size=(3, 3), stride=(1, 1), padding=(1, 1), groups=256)
          )
          (scale): Conv1d(256, 256, kernel_size=(1,), stride=(1,), groups=256, bias=False)
          (drop_path): DropPath(prob=0.0)
        )
        (30): SpatialMix(
          (grid): [250, 250]
          (norm): BatchNorm1d(256, eps=1e-05, momentum=0.1, affine=True, track_running_stats=True)
          (ffn): Sequential(
            (0): Conv2d(256, 256, kernel_size=(3, 3), stride=(1, 1), padding=(1, 1), groups=256)
            (1): ReLU(inplace=True)
            (2): Conv2d(256, 256, kernel_size=(3, 3), stride=(1, 1), padding=(1, 1), groups=256)
          )
          (scale): Conv1d(256, 256, kernel_size=(1,), stride=(1,), groups=256, bias=False)
          (drop_path): DropPath(prob=0.0)
        )
        (31-32): 2 x SpatialMix(
          (grid): [250, 12]
          (norm): BatchNorm1d(256, eps=1e-05, momentum=0.1, affine=True, track_running_stats=True)
          (ffn): Sequential(
            (0): Conv2d(256, 256, kernel_size=(3, 3), stride=(1, 1), padding=(1, 1), groups=256)
            (1): ReLU(inplace=True)
            (2): Conv2d(256, 256, kernel_size=(3, 3), stride=(1, 1), padding=(1, 1), groups=256)
          )
          (scale): Conv1d(256, 256, kernel_size=(1,), stride=(1,), groups=256, bias=False)
          (drop_path): DropPath(prob=0.0)
        )
        (33): SpatialMix(
          (grid): [250, 250]
          (norm): BatchNorm1d(256, eps=1e-05, momentum=0.1, affine=True, track_running_stats=True)
          (ffn): Sequential(
            (0): Conv2d(256, 256, kernel_size=(3, 3), stride=(1, 1), padding=(1, 1), groups=256)
            (1): ReLU(inplace=True)
            (2): Conv2d(256, 256, kernel_size=(3, 3), stride=(1, 1), padding=(1, 1), groups=256)
          )
          (scale): Conv1d(256, 256, kernel_size=(1,), stride=(1,), groups=256, bias=False)
          (drop_path): DropPath(prob=0.0)
        )
        (34-35): 2 x SpatialMix(
          (grid): [250, 12]
          (norm): BatchNorm1d(256, eps=1e-05, momentum=0.1, affine=True, track_running_stats=True)
          (ffn): Sequential(
            (0): Conv2d(256, 256, kernel_size=(3, 3), stride=(1, 1), padding=(1, 1), groups=256)
            (1): ReLU(inplace=True)
            (2): Conv2d(256, 256, kernel_size=(3, 3), stride=(1, 1), padding=(1, 1), groups=256)
          )
          (scale): Conv1d(256, 256, kernel_size=(1,), stride=(1,), groups=256, bias=False)
          (drop_path): DropPath(prob=0.0)
        )
        (36): SpatialMix(
          (grid): [250, 250]
          (norm): BatchNorm1d(256, eps=1e-05, momentum=0.1, affine=True, track_running_stats=True)
          (ffn): Sequential(
            (0): Conv2d(256, 256, kernel_size=(3, 3), stride=(1, 1), padding=(1, 1), groups=256)
            (1): ReLU(inplace=True)
            (2): Conv2d(256, 256, kernel_size=(3, 3), stride=(1, 1), padding=(1, 1), groups=256)
          )
          (scale): Conv1d(256, 256, kernel_size=(1,), stride=(1,), groups=256, bias=False)
          (drop_path): DropPath(prob=0.0)
        )
        (37-38): 2 x SpatialMix(
          (grid): [250, 12]
          (norm): BatchNorm1d(256, eps=1e-05, momentum=0.1, affine=True, track_running_stats=True)
          (ffn): Sequential(
            (0): Conv2d(256, 256, kernel_size=(3, 3), stride=(1, 1), padding=(1, 1), groups=256)
            (1): ReLU(inplace=True)
            (2): Conv2d(256, 256, kernel_size=(3, 3), stride=(1, 1), padding=(1, 1), groups=256)
          )
          (scale): Conv1d(256, 256, kernel_size=(1,), stride=(1,), groups=256, bias=False)
          (drop_path): DropPath(prob=0.0)
        )
        (39): SpatialMix(
          (grid): [250, 250]
          (norm): BatchNorm1d(256, eps=1e-05, momentum=0.1, affine=True, track_running_stats=True)
          (ffn): Sequential(
            (0): Conv2d(256, 256, kernel_size=(3, 3), stride=(1, 1), padding=(1, 1), groups=256)
            (1): ReLU(inplace=True)
            (2): Conv2d(256, 256, kernel_size=(3, 3), stride=(1, 1), padding=(1, 1), groups=256)
          )
          (scale): Conv1d(256, 256, kernel_size=(1,), stride=(1,), groups=256, bias=False)
          (drop_path): DropPath(prob=0.0)
        )
        (40-41): 2 x SpatialMix(
          (grid): [250, 12]
          (norm): BatchNorm1d(256, eps=1e-05, momentum=0.1, affine=True, track_running_stats=True)
          (ffn): Sequential(
            (0): Conv2d(256, 256, kernel_size=(3, 3), stride=(1, 1), padding=(1, 1), groups=256)
            (1): ReLU(inplace=True)
            (2): Conv2d(256, 256, kernel_size=(3, 3), stride=(1, 1), padding=(1, 1), groups=256)
          )
          (scale): Conv1d(256, 256, kernel_size=(1,), stride=(1,), groups=256, bias=False)
          (drop_path): DropPath(prob=0.0)
        )
        (42): SpatialMix(
          (grid): [250, 250]
          (norm): BatchNorm1d(256, eps=1e-05, momentum=0.1, affine=True, track_running_stats=True)
          (ffn): Sequential(
            (0): Conv2d(256, 256, kernel_size=(3, 3), stride=(1, 1), padding=(1, 1), groups=256)
            (1): ReLU(inplace=True)
            (2): Conv2d(256, 256, kernel_size=(3, 3), stride=(1, 1), padding=(1, 1), groups=256)
          )
          (scale): Conv1d(256, 256, kernel_size=(1,), stride=(1,), groups=256, bias=False)
          (drop_path): DropPath(prob=0.0)
        )
        (43-44): 2 x SpatialMix(
          (grid): [250, 12]
          (norm): BatchNorm1d(256, eps=1e-05, momentum=0.1, affine=True, track_running_stats=True)
          (ffn): Sequential(
            (0): Conv2d(256, 256, kernel_size=(3, 3), stride=(1, 1), padding=(1, 1), groups=256)
            (1): ReLU(inplace=True)
            (2): Conv2d(256, 256, kernel_size=(3, 3), stride=(1, 1), padding=(1, 1), groups=256)
          )
          (scale): Conv1d(256, 256, kernel_size=(1,), stride=(1,), groups=256, bias=False)
          (drop_path): DropPath(prob=0.0)
        )
        (45): SpatialMix(
          (grid): [250, 250]
          (norm): BatchNorm1d(256, eps=1e-05, momentum=0.1, affine=True, track_running_stats=True)
          (ffn): Sequential(
            (0): Conv2d(256, 256, kernel_size=(3, 3), stride=(1, 1), padding=(1, 1), groups=256)
            (1): ReLU(inplace=True)
            (2): Conv2d(256, 256, kernel_size=(3, 3), stride=(1, 1), padding=(1, 1), groups=256)
          )
          (scale): Conv1d(256, 256, kernel_size=(1,), stride=(1,), groups=256, bias=False)
          (drop_path): DropPath(prob=0.0)
        )
        (46-47): 2 x SpatialMix(
          (grid): [250, 12]
          (norm): BatchNorm1d(256, eps=1e-05, momentum=0.1, affine=True, track_running_stats=True)
          (ffn): Sequential(
            (0): Conv2d(256, 256, kernel_size=(3, 3), stride=(1, 1), padding=(1, 1), groups=256)
            (1): ReLU(inplace=True)
            (2): Conv2d(256, 256, kernel_size=(3, 3), stride=(1, 1), padding=(1, 1), groups=256)
          )
          (scale): Conv1d(256, 256, kernel_size=(1,), stride=(1,), groups=256, bias=False)
          (drop_path): DropPath(prob=0.0)
        )
      )
    )
    (classif): Conv1d(256, 19, kernel_size=(1,), stride=(1,))
  )
)
6.840615 x 10^6 trainable parameters 
Trainer on gpu: None. World size:1.

Training: 0/60 epochs
       0%|                                                  | 0/3 [00:00<?, ?it/s]      33%|████████████████▋                                 | 1/3 [00:01<00:03,  1.65s/it]      67%|█████████████████████████████████▎                | 2/3 [00:02<00:00,  1.06it/s]     100%|██████████████████████████████████████████████████| 3/3 [00:02<00:00,  1.42it/s]     100%|██████████████████████████████████████████████████| 3/3 [00:02<00:00,  1.18it/s]
…
